lstm_market_value_predictor.pth (torch, 529271 bytes, 9 tensors)

lstm1.weight_ih_l0 f4 [512, 29]
000000 6b 20 da bb 23 12 b6 be 13 3c cf bd 35 31 01 3e
       -0.0066566966 -0.35560712 -0.1011888 0.12616427
000010 f2 87 74 be 4f ec 82 3e 20 73 5c 3e d2 84 95 3e
       -0.23879984 0.25570914 0.21528292 0.29202896
000020 d7 e5 b2 be d9 d0 a0 3c 15 4b dc 3e 05 94 47 3e
       -0.3494098 0.019630836 0.43026033 0.19490059
000030 ca b4 1a 3c b8 f6 00 3c 1e de a1 bd a0 df 28 3e
       0.0094425175 0.007871322 -0.079036936 0.16491556
000040 07 05 e4 bd 9d 0c ed be ef 06 34 3f 82 fc 51 3f
       -0.111337714 -0.46298686 0.7032308 0.8202592
000050 9a 50 93 be cf 7d bf 3e c0 39 c6 3a 05 63 85 3e
       -0.28772432 0.37400672 0.0015123412 0.26052108
000060 94 43 f6 3d 00 03 2e bd 96 70 b4 be ef 6b b3 bd
       0.12024608 -0.04248333 -0.35242146 -0.08760821
000070 3c 4a 2e 3e 04 b9 9a bd 11 d9 68 bc 31 11 3f 3d
       0.17020506 -0.0755482 -0.014211909 0.046647254
000080 34 77 09 be 3d 9a b9 be 4b 8e 7c bd 44 64 73 3e
       -0.13424379 -0.36250487 -0.06165914 0.23768717
000090 f8 bb fb 3d 5c e1 88 bd 5d f3 33 3d ca 3f 33 3f
       0.122917116 -0.06683609 0.04393326 0.7001921
0000a0 50 c7 6e be 3e ac fb be 20 94 53 bd db 87 c8 3d
       -0.23318219 -0.49154848 -0.051654935 0.097915374
0000b0 a6 7c 6c 3e 88 58 bb 3e 1d b3 1b be b8 95 7d be
       0.23094425 0.3659098 -0.15205045 -0.24764144
0000c0 a9 60 9a be 3b 78 f6 be f9 40 0c 3f 1c 69 ec 3c
       -0.3015187 -0.48138604 0.5478664 0.028858714
0000d0 81 c8 1a bc 4a fc 69 be 16 b6 f0 bd 3f b2 f7 be
       -0.009447218 -0.22850147 -0.1175348 -0.48378178
0000e0 f3 7e 96 3d ea c7 c1 3d db 6b 88 be da 73 45 3e
       0.073484324 0.09461959 -0.26644787 0.19282475
0000f0 62 ba 54 be 14 19 80 be 89 de 15 bf ee c8 a1 be
       -0.20774224 -0.25019133 -0.58542687 -0.3159861
000100 81 c9 f2 be 40 2e 03 bf 23 5c 3a be c3 27 15 bd
       -0.4741936 -0.51242447 -0.1819921 -0.036414873
000110 28 d8 4e bf ad 15 38 3e ee 4e d9 bd 0a 76 57 3d
       -0.8079858 0.17977019 -0.10610758 0.052602805
000120 0f 29 03 3d a7 26 24 bc 56 c0 02 bf a2 09 17 3f
       0.03202158 -0.010018981 -0.5107473 0.58999074
000130 5a 67 a1 3d 6b 9c 22 bd a4 5e 73 3d df e3 e1 3d
       0.07881041 -0.039699953 0.05941643 0.11029791
000140 50 cf f7 3b a4 91 69 be b6 87 04 3e 8e 45 bf be
       0.0075625554 -0.22809464 0.12942395 -0.37357754
000150 3b 77 a1 be e2 3e 82 bd 4f 19 c7 3e 88 92 ad be
       -0.31536278 -0.0635965 0.38886496 -0.33900857
000160 39 fc 2a 3f 1c 7d 89 be c8 29 df 3d 7a 3a 34 3d
       0.6679111 -0.26853263 0.10896641 0.04400108
000170 95 8c 53 3f 60 87 47 bb 21 55 d4 be 36 a6 2d bd
       0.82636386 -0.003044568 -0.41471198 -0.04239484
000180 74 a0 90 3c 66 2b 8d 3e 0b 30 02 bf 78 21 f1 bc
       0.017654635 0.27572173 -0.5085456 -0.029434904
000190 a0 41 a0 bc cb a8 42 be 79 b5 00 3e 2a d9 a2 3e
       -0.019562542 -0.19009702 0.12569226 0.31806308
0001a0 49 bc ab be f2 ec 08 3e ca fa ae be 21 c3 35 bf
       -0.33542088 0.13371637 -0.34175712 -0.7100087
0001b0 b0 c1 39 3d 74 15 9c bc 17 79 09 be 2d 37 b7 3d
       0.04535073 -0.019053198 -0.13425098 0.08946071
0001c0 bd f6 56 3d 6e 24 b9 3d 21 7f 9d bd c9 14 00 3e
       0.0524814 0.090401515 -0.076902635 0.12507929
0001d0 36 57 9d 3d f7 f0 89 3e af a5 2f be fc 01 85 bd
       0.0768265 0.26941654 -0.17153047 -0.06494519
0001e0 86 61 6a be ed 26 b6 be 28 98 a0 be 14 3e db be
       -0.22888765 -0.35576573 -0.31366086 -0.428208
0001f0 cf b0 57 be b0 72 dd 3c 3e 9d 4c 3e f0 e2 9a 3e
       -0.21063541 0.027032226 0.19981858 0.30251265
000200 a3 06 96 be c0 a4 21 bd 22 1b 97 be ce ca 02 3f
       -0.29301938 -0.03946376 -0.29512888 0.51090705
000210 f5 04 ab bd ca 97 df bd da e7 02 3e d0 6b de bb
       -0.08350555 -0.10917623 0.12783757 -0.0067877546
000220 7b 92 ef be 52 88 a0 be e4 68 9b bc f8 b4 f4 be
       -0.46791443 -0.31354004 -0.018970914 -0.47794318
000230 e3 47 10 be 3c 27 74 3e 95 4f 4e 3d 68 d8 e2 bc
       -0.14089923 0.23843092 0.050368864 -0.027691081
000240 68 a5 ff 3d ba 47 fc 3d bb 73 ea 3d af 3f 85 be
       0.124827206 0.12318368 0.11447855 -0.2602515
000250 4e 63 53 bd 0a a5 8a 3e 8e a5 f2 3d 7d 2d 1f 3c
       -0.051608376 0.2707904 0.11847983 0.009715435
000260 0e 04 68 3e 5e 3a 93 3e 80 6c 60 3e ad f4 b8 bd
       0.22657797 0.28755468 0.2191639 -0.09031043
000270 4b aa 58 bd 9c 4c ad 3e 00 be 8d ba 8e db 0a be
       -0.05289678 0.3384751 -0.0010814071 -0.13560316
000280 99 5d 32 bd 22 95 ce bd 68 4e 2d bd 42 46 1f bd
       -0.043546293 -0.100870386 -0.042311102 -0.038885362
000290 ad 4f fa be da 71 e6 3e 94 f3 8c bd 0d 58 06 bd
       -0.48888913 0.45008737 -0.06882396 -0.032798816
0002a0 6f 1f 32 bf 94 60 27 be e0 1e 04 be f1 71 a6 3e
       -0.69579214 -0.16345435 -0.12902403 0.32508805
0002b0 1a 34 9c bd 3d 69 fd bc dc 5c ea be 03 f2 21 3e
       -0.07627125 -0.03093397 -0.4577397 0.15814976
0002c0 bc 68 e5 be cb 10 11 be 75 1a e6 bd 3d 84 ee be
       -0.44806468 -0.14166562 -0.11235515 -0.46585265
0002d0 cb a1 dc 3d 8d 7d 3e be 2c 93 58 be d5 4f 0d be
       0.10773047 -0.18602581 -0.21149892 -0.13799985
0002e0 69 db 4c be 7c 87 fc 3c 13 2b 98 be c2 9e a1 bd
       -0.20005573 0.030826323 -0.29720363 -0.07891609
0002f0 8b 51 1a 3c de 48 16 bb 16 9e 05 bf 02 46 8e be
       0.009418855 -0.0022931616 -0.52194345 -0.27787787
000300 e5 62 f4 bd b9 06 64 3d 61 5b 86 3d d6 60 9a 3f
       -0.11932925 0.055670474 0.06560398 1.2060802
000310 7c 68 98 bd c2 1b 10 3d f7 dc 82 3e 62 4c 87 be
       -0.07441804 0.035182722 0.25559208 -0.26425463
000320 28 f9 02 bf 78 64 e3 3c f2 a4 48 3f 1e 88 b2 3e
       -0.5116143 0.027757868 0.78376687 0.34869474
000330 d3 72 11 be c5 af 03 3e 43 2c ef bd 4f ca 95 be
       -0.14203958 0.1286002 -0.11678364 -0.29255912
000340 8f 08 61 3e 75 e0 fa bd f7 a8 cd be 69 83 9e be
       0.21975921 -0.12249843 -0.40167972 -0.30959633
000350 ea bd ab bd ad 30 67 bf 8e 22 50 bf 61 85 d9 bd
       -0.083858326 -0.9030865 -0.81302726 -0.10621143
000360 48 42 d4 bc 17 67 95 bd 3d 06 1e 3f fa 34 9d bc
       -0.025910512 -0.072950535 0.6172827 -0.0191903
000370 08 75 95 3d 86 d7 65 3e 20 f4 49 3e 16 c0 9b bd
       0.072977126 0.22445497 0.19722033 -0.07604997
000380 09 e0 48 be 38 52 0e 3c 9b 54 bf bd 0c 40 a9 be
       -0.19616713 0.008686595 -0.09342309 -0.33056676
000390 58 4b 83 be 30 9b 96 be e0 c0 8e bc 62 32 8e be
       -0.2564342 -0.29415274 -0.017425954 -0.27772814
0003a0 64 7a 12 bd d4 dd 47 b9 f8 3c 53 3d 9d c8 cd 3d
       -0.035761252 -0.00019060756 0.051571816 0.100480296
0003b0 8d 35 67 be 19 6e e6 bd 89 0d bb be 1a e3 38 bf
       -0.22579022 -0.11251468 -0.36533764 -0.7222153
0003c0 53 03 0a bf 54 b0 7d be 73 6c 25 be 68 31 83 bf
       -0.5391132 -0.24774295 -0.16154651 -1.0249453
0003d0 30 5d e0 bd 06 75 19 3d 12 92 46 bf 31 b0 c2 3e
       -0.10955274 0.037465118 -0.77566636 0.38025048
0003e0 ba e6 e2 be 1b 0f a5 bb 6e 72 48 3d dd 02 1b 3e
       -0.44316655 -0.005037201 0.048937254 0.15137811
0003f0 2f bf d7 3e e6 37 0e 3f e6 1a 01 3d 21 87 82 3e
       0.4213805 0.55554044 0.031519793 0.2549372

lstm1.weight_hh_l0 f4 [512, 128]
000000 0f 64 20 bd 83 b5 ec 3e c0 bd 14 3e 23 55 82 be
       -0.039157923 0.46232232 0.14525509 -0.2545558
000010 c0 c4 93 3e 4d 5c a5 3e 5a 5a 25 3f 4a 30 85 3d
       0.28861046 0.32296982 0.6459099 0.06503351
000020 df 10 ff 3e ba 90 25 be d9 ae 8b 3d 2e 1c 83 3d
       0.4981756 -0.1616849 0.06820459 0.06401859
000030 2a 98 fc be dc 8c 38 3f 31 5f 2b bd c9 c3 d4 be
       -0.49334842 0.72089934 -0.04183883 -0.41555622
000040 1a d7 ec bd 26 7e 38 3d a2 2f d6 bc f5 75 6e 3d
       -0.11564465 0.04504218 -0.02614576 0.05821796
000050 3a a4 f3 3e 93 90 14 bd 8b 26 e8 be 51 4a 21 bc
       0.47586232 -0.03627069 -0.45341906 -0.009844379
000060 2c 3c 0b be 3a b4 d9 3e a3 7c f1 3e aa 32 df 3d
       -0.13597172 0.42520314 0.47165403 0.10898335
000070 1c 67 25 bf df 57 70 bf ca 9c 87 be e8 95 d4 bd
       -0.6461046 -0.9388408 -0.26486808 -0.10380155
000080 72 e2 04 bd 1e 36 08 bf 7e 0f d0 3d 13 7f 20 be
       -0.032442518 -0.53207576 0.10159205 -0.15673475
000090 1e e1 9e 3e 87 c6 d6 be 2f 68 89 bd 0c 1b 14 bf
       0.31031126 -0.4194834 -0.067093246 -0.5785377
0000a0 19 da e2 be 8c 9b 18 bf b7 f4 29 be ff bb ba 3d
       -0.4430702 -0.59612346 -0.16597258 0.09117889
0000b0 bb 32 55 3d b8 cd c5 3e 67 dd 75 be f0 50 59 be
       0.052050333 0.38633513 -0.2401024 -0.21222281
0000c0 3e 95 05 bd ab ef 69 3f 09 b5 5f be 57 d9 4f 3e
       -0.03261303 0.9138133 -0.21846403 0.20297752
0000d0 ba 74 b5 be dd 93 39 bf 74 56 ee be cc ff 56 3e
       -0.35440618 -0.72491246 -0.46550333 0.20996016
0000e0 98 48 bb 3c 43 14 de 3e b8 61 99 be 63 ae 87 3e
       0.022861764 0.43374833 -0.29957366 0.26500234
0000f0 b2 91 2d bf 54 e9 54 3e 9d bb ba bd a8 ae 16 be
       -0.6780044 0.20792133 -0.09117816 -0.14715064
000100 84 72 6d be 3b 70 90 3e f1 55 b5 bc 09 7c 56 bf
       -0.23188215 0.28210625 -0.022135707 -0.8378301
000110 3e b6 d0 be c1 64 00 3f 08 eb 7b 3e c2 80 f5 3e
       -0.4076404 0.5015374 0.24601376 0.47949797
000120 ab c8 7d be 82 fb ab bd c1 de 50 be 4e d3 1a 3e
       -0.2478358 -0.08397581 -0.20397474 0.15119669
000130 38 88 43 3e 30 78 4d 3e 6b c9 b3 3d d4 ae 77 be
       0.19094932 0.20065379 0.08778652 -0.24187785
000140 87 df 65 bd 69 a1 f7 3d f1 1f 2f 3f a8 6d 2c be
       -0.056121375 0.120913334 0.68408114 -0.16838706
000150 2c 80 65 be d0 ea f9 3e 53 cc 68 3d dc 5f c6 3d
       -0.22412175 0.4881196 0.056835484 0.096862525
000160 07 6e 89 3d 88 78 48 3e 0e 02 e1 3e c1 0c be be
       0.06710439 0.19577229 0.4394688 -0.37119105
000170 89 bd 5f bd 4a 04 dc bd fe d7 56 be a2 78 88 3e
       -0.054624114 -0.107430056 -0.20980832 0.26654536
000180 7b 78 a0 be ae 0a 8b 3e d1 21 74 3e 9b 18 a8 be
       -0.3134192 0.27156585 0.23841025 -0.32831272
000190 d7 a0 71 3e ce 0d a3 3d 1d 88 c2 3e 6f d6 b0 be
       0.23596512 0.079616174 0.3799447 -0.345386
0001a0 76 0a b5 3e d0 ed ff be 18 27 19 3f da da 0a 3f
       0.35359544 -0.49986124 0.5982528 0.5424019
0001b0 b9 32 5a 3e c7 e5 d9 3e b9 fd 06 3f 3a 74 ed bd
       0.21308412 0.4255812 0.527309 -0.11594434
0001c0 3e f7 03 bf 05 8b d4 3e 18 f0 78 3e 85 73 24 be
       -0.51549137 0.41512313 0.24310338 -0.16059692
0001d0 71 c9 85 be ee 5f 91 3e 89 21 70 be 6c 7e b0 be
       -0.2613025 0.283935 -0.23450293 -0.34471452
0001e0 72 4a 1b 3e 6d ff 9e be 10 a8 bd be 03 89 08 3e
       0.15165117 -0.3105425 -0.37042284 0.13333516
0001f0 8d 68 34 3e 7e 26 1d be 5c e6 a8 be e3 f9 00 3e
       0.17618008 -0.15346715 -0.3298825 0.12595324
000200 0f 7f 04 3e ea 8d 06 bc 4b 89 e7 3e 4d 2b 1d be
       0.12939094 -0.008212546 0.45221934 -0.15348549
000210 80 da 67 be 7e 87 50 be f0 61 58 3e 41 d6 12 3d
       -0.22641945 -0.20364186 0.2113111 0.03584886
000220 f4 ac 8d 3e 35 96 26 bd 72 21 39 bf cf f2 a3 bd
       0.27671015 -0.040670592 -0.7231666 -0.080052964
000230 d7 cd 30 3d 93 3f 00 3f 4c 59 7f 3d cd 31 31 be
       0.043165054 0.50097007 0.06234102 -0.17304154
000240 84 5a ff 3e 06 eb db 3e 04 ad 26 3f f4 61 51 3e
       0.49873745 0.42952746 0.6510775 0.20447522
000250 5e 5b 41 3e 9a 02 f3 3e cc d7 82 3e 08 83 8d 3e
       0.1888251 0.47462922 0.25555265 0.2763903
000260 33 16 3e 3f 25 07 02 be 1f a3 b9 3e 30 f3 14 3e
       0.74252623 -0.12698038 0.36257264 0.14545894
000270 22 89 39 3e 67 2d d9 be b2 13 25 3f 78 09 63 3d
       0.18118718 -0.42417452 0.6448318 0.055428952
000280 dd f3 81 3d 15 43 81 3e d7 e6 df be 5c c4 be 3e
       0.06345341 0.25246492 -0.43730804 0.37259185
000290 32 8e a1 3e 03 13 18 3e 3b 81 04 3e 37 a9 d0 be
       0.315538 0.14851002 0.12939923 -0.407541
0002a0 3c 38 1f 3f cd 15 94 be 2b 38 96 bd 47 45 2b 3f
       0.6219518 -0.28922883 -0.07334932 0.66902584
0002b0 3b 25 16 be 9a ab bd 3d 0b 6a 00 be b3 5c e1 3b
       -0.1466264 0.09261246 -0.12540452 0.0068775057
0002c0 40 10 81 3e 63 dc 31 bf cd 45 81 3e f7 99 15 3f
       0.2520771 -0.6947691 0.25248566 0.58438057
0002d0 ce b3 26 3f d7 b3 ef be 1b 0c 58 3e 65 ce ab be
       0.6511811 -0.46816894 0.21098368 -0.33555904
0002e0 28 09 42 3f 7b c9 be 3e a3 39 1b 3f b2 dd 14 3f
       0.7579522 0.37263092 0.6063482 0.5815078
0002f0 9e f2 af 3e 36 5b 5c 3f f0 8f 70 3e 8b 82 de be
       0.3436479 0.86076677 0.23492408 -0.4345897
000300 87 7f 01 bf 14 02 9a 3e 8f 49 cb 3e 31 75 15 3f
       -0.50585216 0.3007971 0.39704558 0.58381945
000310 48 77 75 3d 5d 5f 05 be 5b a3 99 be 69 5b 41 bd
       0.05992821 -0.1302466 -0.30007443 -0.047206316
000320 d9 2d bc bd 24 97 ad 3e 93 e2 aa 3e c9 12 a2 3d
       -0.09188432 0.33904374 0.33375987 0.07913739
000330 bf 54 82 3f d5 e6 88 3e dd dc 9b 3e 31 80 f2 3e
       1.0182112 0.2673861 0.30441943 0.47363427
000340 a7 54 be be 19 6b 21 3d ea 00 63 bd f0 9f 2b bd
       -0.3717396 0.039408777 -0.055420794 -0.041900575
000350 4a 00 b6 bc 97 66 9c 3e d4 57 0e 3e 9d ee 12 bf
       -0.022216935 0.3054702 0.13900691 -0.57395345
000360 88 70 82 3e cf 18 d3 be a9 65 d5 bd d8 2f a4 be
       0.2547648 -0.41229865 -0.10419781 -0.32067752
000370 5e dc a8 bd 24 42 3e 3c 7e dc 5f bf 19 5e ce be
       -0.08245157 0.011612449 -0.8744582 -0.40306166
000380 ad 11 a5 bd 31 e0 7f 3c ef de 19 3e b6 74 34 3e
       -0.08060012 0.015617416 0.15026449 0.17622647
000390 46 08 fc 3d 94 8a 4e be cc 66 a4 3e 53 c0 bc bd
       0.123062655 -0.20170051 0.32109678 -0.092163704
0003a0 1e c9 7e bd c6 43 73 be 54 d1 06 3f a7 db e5 3e
       -0.06220352 -0.23756322 0.5266316 0.44894144
0003b0 1e bd b0 3e c7 a5 22 be 2f 08 b6 3e 79 24 be 3e
       0.34519285 -0.15883552 0.3555312 0.371372
0003c0 bb a1 25 be 75 c8 d7 3e 8d cf 3f be 95 60 9e 3e
       -0.16174977 0.42145124 -0.18731518 0.3093306
0003d0 0f 9c 14 3f 83 61 1c 3f 37 8d 38 be 7d ae 94 be
       0.58050627 0.6108629 -0.18022619 -0.29039374
0003e0 ae 86 89 be 15 d8 7d bd c9 1f 7f be e1 5c 97 be
       -0.26860565 -0.06197365 -0.24914469 -0.29563048
0003f0 ca 71 52 3f 0b e6 3c 3f ed 01 0d be 4e 6d f5 be
       0.8220488 0.7378852 -0.13770266 -0.47934955

lstm1.bias_ih_l0 f4 [512]
000000 a9 b5 bb be 34 b0 f0 be ad 69 a1 be 0a 7f f5 bd
       -0.36662033 -0.47009432 -0.31525937 -0.119871214
000010 5d d3 c4 be 8e 99 2f bd 8a 93 88 3d 44 54 0e be
       -0.38442507 -0.04287105 0.06668766 -0.13899332
000020 04 43 f1 bd f3 63 6b be 11 57 89 be fc d8 d9 be
       -0.1178036 -0.22987346 -0.2682424 -0.42548358
000030 d1 ad 8b be 6b 76 75 be 76 b6 ea be 27 b8 ba be
       -0.2728105 -0.23970954 -0.45842332 -0.36468622
000040 32 25 e3 3b 80 63 d6 be e0 73 07 bf 87 91 4a bf
       0.0069319243 -0.41872787 -0.52911186 -0.7912831
000050 6d f0 d0 be 22 ee 85 bd 73 91 a6 be 53 01 15 bf
       -0.4080843 -0.06539561 -0.32532844 -0.58205146
000060 3d 16 c0 bc e6 34 64 be 68 b5 3e be c0 3d b4 be
       -0.023448104 -0.22285804 -0.18623888 -0.35203362
000070 6b 8c 3b bc ab 46 3d be 8e 0f 84 be 91 30 d3 be
       -0.0114470525 -0.18483989 -0.25793117 -0.4124799
000080 30 dc c0 be 35 b9 ed bd b9 69 3f be 55 0f 85 be
       -0.3766799 -0.11607591 -0.18692674 -0.2598826
000090 ef 35 ac be 14 01 92 be 5f 39 8b be dc eb 29 be
       -0.33634898 -0.28516448 -0.27192208 -0.1659388
0000a0 a7 b5 07 bf 4b 05 c4 bd b7 45 b6 be 83 e3 93 be
       -0.53011554 -0.09571322 -0.35600063 -0.28884515
0000b0 fa 21 ff be 9b f1 56 be e5 93 9c be 9e 24 db 3d
       -0.4983061 -0.20990603 -0.30581585 0.107003435
0000c0 7d 51 07 bd a4 30 bf 3d 53 b2 78 be 91 81 f0 be
       -0.033036698 0.09335449 -0.24286775 -0.4697385
0000d0 ab 1c 6f be 82 c7 ad be 8e 86 4a bf 06 92 67 be
       -0.2335078 -0.33941275 -0.79111564 -0.22614297
0000e0 5e 4b 6e be da d3 b3 be 84 39 79 be 47 d4 86 be
       -0.23270938 -0.35122567 -0.24338347 -0.2633383
0000f0 db 4c 0f bf 78 0c ca bd 35 5d 97 be 83 04 2b 3e
       -0.5597665 -0.098656595 -0.295633 0.1670094
000100 77 1f d1 be 19 9f 1d bf e6 37 0e bf 08 a1 03 be
       -0.40844318 -0.6157089 -0.55554044 -0.12854397
000110 29 4d e1 bd 66 ff 81 be 4a b8 b1 3d 47 fe e3 be
       -0.11001045 -0.25390166 0.086777285 -0.44529936
000120 dc 6d 3d bf 86 4f 25 be c1 3c a7 be 2a 01 cc bd
       -0.7399576 -0.16143617 -0.3266354 -0.099611595
000130 6e af c1 bd 80 7b 06 be ab a0 0b be 96 a0 fc bb
       -0.09457289 -0.13133049 -0.13635509 -0.007709573
000140 c8 77 83 be e2 ca 9a be a2 4c 07 be 7a 64 81 be
       -0.25677323 -0.30232912 -0.13212827 -0.2527197
000150 d9 60 53 be 1a bb c3 be dc 00 23 bf 18 7d 0b be
       -0.20642413 -0.38228685 -0.63673186 -0.13621938
000160 63 c3 ee be a9 98 f1 be da 9f b0 be ed ff 9b be
       -0.46633443 -0.47186783 -0.34496957 -0.30468693
000170 2f 2b 07 bf df 4d 14 bf e8 c4 ed bd 73 64 32 be
       -0.5280027 -0.5793132 -0.116098225 -0.17421131
000180 e9 06 e8 be 51 0a ac be 05 d2 e1 3d 54 65 a3 bd
       -0.45317772 -0.3360162 0.11026386 -0.07978311
000190 f0 58 25 be 4e c3 c6 be 48 b2 22 bf c1 6a 8f be
       -0.16147208 -0.3882088 -0.63553286 -0.28011134
0001a0 2b ab 03 bf a3 a0 ca bd 5b c8 ee be f0 0b ea be
       -0.51433057 -0.0989392 -0.46637234 -0.45712233
0001b0 01 07 cb be cf f5 7d be 37 a9 bd be e6 0d f0 be
       -0.3965378 -0.248008 -0.37043163 -0.46885604
0001c0 c5 2e 44 bf 4a 05 2a be bf 1f 00 bf 86 b4 dc be
       -0.76633865 -0.1660358 -0.5004844 -0.43106478
0001d0 a2 20 8a 3d a2 1f ee be f4 7d b8 be 3c fa 43 be
       0.067445055 -0.4650851 -0.36033595 -0.19138426
0001e0 70 39 95 3c 7b cf 62 be b6 8b ee be a6 29 78 bd
       0.018215865 -0.2214946 -0.46590966 -0.060586594
0001f0 88 47 7a be d2 fb 03 bd d7 08 c6 bd be 24 fe be
       -0.2444135 -0.032222576 -0.09669655 -0.49637407
000200 a3 19 1e be d9 d2 b6 be b8 b3 1c be 3a ab 9c 3d
       -0.15439467 -0.3570774 -0.15302932 0.076498464
000210 84 d7 5f be 68 1c 18 3d d0 d9 1d bd 23 63 e7 3d
       -0.21859556 0.037136465 -0.0385378 0.11298206
000220 a0 6a c0 ba 72 20 c3 bc 42 71 14 bd 3f 3c 32 be
       -0.0014680214 -0.023819182 -0.036240824 -0.17405795
000230 ea e7 25 3d 2d 58 7d 3e c3 dd 53 bd 41 94 e1 bd
       0.040504374 0.24740668 -0.05172516 -0.11014605
000240 1a d7 bd bd 47 f3 28 bb d9 72 94 3d 67 81 9e be
       -0.09269543 -0.002577977 0.07248468 -0.309581
000250 68 65 56 be eb 30 d6 bc 20 a4 b3 bd 27 14 9a be
       -0.20937121 -0.026146373 -0.08771539 -0.300935
000260 ae dc 45 3e 5d 08 15 be e8 9f 26 3b 58 d9 7e 3c
       0.19322464 -0.14553972 0.0025424901 0.0155547485
000270 38 0d 36 3e 41 35 29 be 86 70 aa bd 49 54 04 be
       0.1777848 -0.16524221 -0.083222434 -0.12922777
000280 30 56 49 3d 9c 6b 12 bd a2 64 ce be 1d 63 b6 bd
       0.04915446 -0.035747156 -0.40311152 -0.08905623
000290 5f 19 de bd 92 6d 5f 3c 8e 0d 13 be 3d 96 5a be
       -0.10844683 0.013636963 -0.1436064 -0.21346374
0002a0 94 37 a2 bd 3e 9e 8e bd dc 9d 1e be ea e3 22 be
       -0.07920757 -0.06963776 -0.15489906 -0.15907255
0002b0 39 0b 0c be aa b6 d0 bd a3 a2 6f be df e0 94 be
       -0.13676156 -0.101910904 -0.23401885 -0.29077813
0002c0 be 33 ab 3d dd 37 cd 3d 86 0c 3a 3b 02 be c6 be
       0.083594784 0.10020421 0.0028388812 -0.3881684
0002d0 5e a0 e0 3d 3c be 6d 3d 8c 05 40 bd a5 41 c6 bc
       0.109680876 0.05804275 -0.04688029 -0.024201224
0002e0 c4 84 14 3c 1c b6 6b be 4d 5e a6 3b a7 2d 9d 3d
       0.009064857 -0.23018688 0.0050771595 0.07674723
0002f0 a2 ba 05 bb 7e cd 12 be 9a 20 3f be 39 09 97 3d
       -0.0020405431 -0.14336202 -0.1866478 0.07374806
000300 53 c5 8d bc f9 ed 57 3e e4 51 c0 bc e8 b8 09 be
       -0.017306006 0.21086873 -0.023476548 -0.13449442
000310 04 09 92 be 06 18 a6 bd 79 5f fa 3d 27 ea 5b be
       -0.28522503 -0.08110051 0.12225241 -0.21476041
000320 cb 10 0c be c7 c2 ce bd 08 ab 18 bc 46 ab 4c 3d
       -0.13678281 -0.100957446 -0.009318121 0.049968027
000330 44 0b 23 3d b9 62 df 3d a9 37 b9 3c 1e 1e 63 be
       0.039805666 0.10907502 0.022609549 -0.22179458
000340 26 34 66 be 1d fd 2b 3d a5 11 b6 3d b8 3d b7 bd
       -0.2248083 0.041989435 0.08890084 -0.08947319
000350 ae ce 86 be 73 28 3f 3c e5 8c 91 be e8 fd 61 be
       -0.2632956 0.011667359 -0.28427806 -0.22069514
000360 cc 13 12 bd ec 4a da bd 91 c6 4d 3d e9 ac 95 bd
       -0.03566341 -0.106588215 0.050238196 -0.073083706
000370 71 97 2b be 3e 15 05 be 61 12 d7 bd 8b c7 18 3e
       -0.16756989 -0.12996385 -0.105015524 0.1491987
000380 da b9 db 3d 78 30 d6 bd a6 c3 4f 3e e5 05 48 bd
       0.10728808 -0.104584634 0.20289478 -0.048833746
000390 35 71 25 3c 65 fe 17 be 07 2e aa bd b5 e9 94 be
       0.010097791 -0.14843138 -0.0830956 -0.29084554
0003a0 ec dd 0d be 23 90 eb bd e8 ad 95 be 73 4d b9 bd
       -0.13854188 -0.11502101 -0.29234242 -0.090479754
0003b0 74 92 35 bd b4 4e fe bd 91 f9 5c be ef 34 bf ba
       -0.04432912 -0.12417355 -0.21579577 -0.0014587919
0003c0 68 63 21 bd d9 4f 20 3e 28 77 1a be 7b d2 47 3b
       -0.03940144 0.1565546 -0.15084517 0.0030490446
0003d0 ae 94 70 3e f4 5d a5 3d 52 9e f6 bb a6 59 66 be
       0.23494217 0.08074561 -0.0075261975 -0.22495136
0003e0 ab 1c 5a bd 53 ef 24 be 0c 85 26 bc d4 d0 46 be
       -0.053249996 -0.1610692 -0.010163557 -0.19415599
0003f0 9f 19 f3 bd 74 b7 10 be a9 62 90 3e 67 15 1d be
       -0.11870121 -0.14132482 0.28200272 -0.15340196

lstm1.bias_hh_l0 f4 [512]
000000 d0 59 f9 be d6 e5 b5 be a8 30 d2 be 08 7a f3 bd
       -0.48701334 -0.35526913 -0.41052747 -0.1188851
000010 a4 1a af be 14 d9 ad bd 9d c0 a4 3d fc a2 46 be
       -0.34200013 -0.0848867 0.080445506 -0.19398111
000020 5c 8f 50 be ce af 85 be 72 1b 9c be b8 cc 02 bf
       -0.20367187 -0.2611069 -0.3048969 -0.51093626
000030 5f d4 ae be 04 8e 88 be 4a 0e b6 be 5c 76 c3 be
       -0.341464 -0.2667085 -0.35557777 -0.3817624
000040 77 f9 b4 bc a2 b4 f3 be 7d df 00 bf 41 a6 49 bf
       -0.02209161 -0.4759875 -0.50341016 -0.7876931
000050 cb 48 96 be bd 05 91 bd 1d c4 84 be a6 f3 f8 be
       -0.29352412 -0.070811726 -0.25930873 -0.4862339
000060 fd 3a 95 bd 89 c1 4a be 5f 18 5a be 8c 0b a9 be
       -0.07286642 -0.1980039 -0.2129836 -0.33016622
000070 1c e6 d6 3c 2b e7 c8 bd 70 e6 47 be 77 b3 b9 be
       0.026232772 -0.09809717 -0.19521499 -0.36269733
000080 1e b3 7c be 5d 6d e9 bd a6 2f 99 be 85 b2 a1 be
       -0.24677703 -0.113978125 -0.29919165 -0.31581512
000090 c5 56 81 be e4 5c a8 be cd 35 8f be 80 72 ab bd
       -0.25261512 -0.3288337 -0.27970734 -0.083714485
0000a0 f1 79 16 bf 3b 35 ec bd 1d a6 8a be 9e 1d 86 be
       -0.5877982 -0.115335904 -0.2707986 -0.2619447
0000b0 a9 40 0f bf 3b cb 96 be ba fe c6 be 62 46 77 3d
       -0.5595804 -0.29451928 -0.38866216 0.060369857
0000c0 20 20 a5 bc 33 d5 71 3c 00 f8 a3 be cf 78 03 bf
       -0.02015692 0.014760303 -0.32025146 -0.51356214
0000d0 97 d3 a7 be 98 b9 36 be b1 a4 4c bf 82 89 66 be
       -0.32778618 -0.17844236 -0.799388 -0.22513393
0000e0 1b 9d 16 be db b9 af be 4c 73 65 be 74 31 a9 be
       -0.14708368 -0.34321484 -0.22407264 -0.33045542
0000f0 4c 4f 0e bf c4 0d d7 bd 4b 91 16 be 36 9d e7 3d
       -0.5558975 -0.105006725 -0.14703862 0.113092825
000100 a9 32 d7 be 72 e5 21 bf 47 2a f0 be 00 2c 1c be
       -0.42030838 -0.6324073 -0.46907255 -0.1525116
000110 bd 7e 1b be 4f 85 88 be 65 50 e5 3d cf 5f fb be
       -0.15185066 -0.26664206 0.11196975 -0.49096534
000120 f3 08 29 bf 71 e6 90 bd 75 81 3a be bb de 99 bd
       -0.6602928 -0.07075203 -0.18213446 -0.075131856
000130 b5 9d 27 be da 7d 10 be eb 4d f9 bd 0c 16 a1 ba
       -0.16368754 -0.14110509 -0.12173065 -0.0012289896
000140 1f e8 ad be e6 06 9a be a1 4d 23 bd 4d b9 c2 be
       -0.33966157 -0.30083388 -0.039868955 -0.38031998
000150 36 1d 49 be f1 cf db be b4 b5 1c bf d0 a7 58 be
       -0.1964005 -0.42932084 -0.61214757 -0.21157765
000160 11 b5 05 bf 06 cf f3 be 7a 31 a1 be dc 01 b4 be
       -0.5222941 -0.47618884 -0.3148306 -0.3515767
000170 9b f0 fe be b9 1b 10 bf 2f 14 17 bc 61 70 01 be
       -0.49792942 -0.562923 -0.009221121 -0.12640525
000180 54 d7 a6 be 8f 04 a8 be 0f 7f 16 3d 11 81 47 bd
       -0.32586157 -0.32815978 0.036742266 -0.04870707
000190 9c 2c 12 be f1 dd 94 be 69 76 27 bf 87 c1 9c be
       -0.1427483 -0.29075578 -0.65415055 -0.306164
0001a0 2a 37 ea be 66 19 3b be 5d 92 a3 be b8 95 f0 be
       -0.45745212 -0.18271407 -0.31947604 -0.46989226
0001b0 d0 ce d4 be 5d 50 8f be 24 24 86 be ca 2e e0 be
       -0.41564035 -0.27991 -0.26199448 -0.43785697
0001c0 f6 e2 34 bf ed 7e 12 be 1d c6 bd be e6 e0 dc be
       -0.70658815 -0.14306231 -0.3706521 -0.43140334
0001d0 70 5e 2b 3d 23 3b dd be 10 5a e1 be 1b 76 46 be
       0.04183811 -0.4320918 -0.44014025 -0.19380991
0001e0 16 e3 56 bc a0 29 6d be 70 d5 df be 3c 5a 46 bd
       -0.013115665 -0.2316041 -0.43717527 -0.048425898
0001f0 4d 21 a9 be d3 02 40 3c eb 9b 86 bd 56 59 e7 be
       -0.3303322 0.011719423 -0.06572708 -0.45185345
000200 09 01 4b bd 4b ee 7e be b3 73 b5 bd 94 5c 64 3d
       -0.049561534 -0.24895589 -0.088599585 0.055752352
000210 c6 34 32 be 5e 43 ce 3d 20 a2 bc bd 53 9a f7 3c
       -0.17402944 0.10071443 -0.092106104 0.030224955
000220 d4 e3 ec bd 3d 3c 35 3d c7 03 a8 bd 29 48 0b be
       -0.11566892 0.0442469 -0.082038455 -0.13601746
000230 ee 06 03 3e 8a f9 3c 3e 70 07 d6 bd 19 86 10 bd
       0.12795612 0.18454567 -0.10450637 -0.035284135
000240 b8 81 5e bd 0a ae 4b 3d 71 46 56 3e 8a d6 98 be
       -0.05432293 0.049726523 0.20925309 -0.2985118
000250 e0 ef 4c be 6e 24 66 bd 2f e0 1f be ce 7d a0 be
       -0.2001338 -0.056187086 -0.15612863 -0.3134598
000260 d5 28 24 3e c7 28 73 be b7 90 fa bd 57 ab 6a 3d
       0.16031201 -0.23746024 -0.122346334 0.05729231
000270 d2 4f 2b 3e 91 fa 09 be 2c 85 c3 bd a3 18 ec bd
       0.16729668 -0.1347449 -0.09546885 -0.115281366
000280 3f 71 98 3d 9a f2 0d be 90 a5 c0 be 7d a5 fa bd
       0.07443475 -0.13862076 -0.37626314 -0.12238596
000290 22 45 b4 3c c8 6e db 3c 47 8a 21 bc 63 0a ff bd
       0.022005621 0.026786223 -0.009859628 -0.12453153
0002a0 1c ba 96 bd ec 7d be bd 42 c9 5d be 11 2b 29 be
       -0.07359716 -0.093013614 -0.21658805 -0.16520335
0002b0 cb 98 10 be 19 1e b0 bd 19 38 2e be ca 37 c8 be
       -0.14120786 -0.08599491 -0.17013587 -0.39105064
0002c0 0b cd b6 3d 50 e3 b2 3d 32 ac 55 3d b0 19 c3 be
       0.089258276 0.08734763 0.05216617 -0.38105536
0002d0 a8 ac 2e 39 3f 42 31 3d 8d c1 39 3d 4d 01 90 bd
       0.00016658253 0.043276068 0.0453506 -0.07031498
0002e0 bd 49 38 bd 03 16 a3 be 51 cb c3 bd 0d de ff 3c
       -0.044992197 -0.3185273 -0.09560264 0.031233812
0002f0 8c 85 f2 bd 4f e8 ac bd 5d 6c 31 be 4a 44 b5 3d
       -0.11841878 -0.08442747 -0.17326494 0.08850916
000300 02 cd ca 3d f9 7b 4e 3e 15 7a a0 3c af a7 d5 bd
       0.099023834 0.2016448 0.019589463 -0.10432374
000310 6f 8b b8 be 5b 64 10 be 29 81 9f 3d cd 88 e5 bd
       -0.3604388 -0.14100783 0.07788307 -0.11207733
000320 1a a5 2f be 6e dd b4 bd 15 0d 8e bd 9b 23 8c bd
       -0.17152825 -0.08831297 -0.06936089 -0.06842729
000330 1d f8 91 3d 11 57 c2 3d 16 d9 85 3d 12 12 1b be
       0.07127402 0.09489263 0.065355465 -0.15143612
000340 c6 a7 90 be 5c 8e 43 3d 91 95 ae 3d fa 2d 49 bd
       -0.28253 0.047743186 0.08524621 -0.049116112
000350 c7 37 6e be 46 dc a6 3d 58 be 58 be ba ec 73 be
       -0.23263465 0.081474826 -0.2116636 -0.23820773
000360 01 76 0b be ea 5b b5 bd 99 ad 6f 3d bc 35 14 bb
       -0.13619234 -0.08855422 0.058515165 -0.0022615036
000370 14 35 a2 be b5 78 70 be c5 f0 90 bd 94 4d 88 3e
       -0.3168112 -0.23483546 -0.07077173 0.26621687
000380 6a 88 d2 bc 71 02 27 be 6c 61 3e 3e 48 0e 66 bd
       -0.025699813 -0.16309525 0.18591851 -0.056165963
000390 a6 a3 25 3e 7d f7 ae bd d1 ef 4b bd b4 1f 69 be
       0.16175708 -0.085432984 -0.049789254 -0.22766
0003a0 8c a5 5f be ef 31 ed bd d5 73 cd be e3 9b 18 3d
       -0.21840495 -0.1158179 -0.40127435 0.03725804
0003b0 66 48 f2 bd c5 b0 3a be bf 2d 3a be 07 54 25 bb
       -0.11830215 -0.18231495 -0.18181513 -0.0025227086
0003c0 95 18 04 3d 5a 15 5d 3e 55 a5 17 be e8 b6 35 3b
       0.032250006 0.21590176 -0.14809163 0.0027727429
0003d0 f9 8e e5 3d 16 2c b0 3c d3 97 10 3d 15 df 70 be
       0.112089105 0.021505397 0.03530104 -0.23522599
0003e0 13 e4 05 be d5 1b 5e bd 3c 88 5a 3a 69 37 21 be
       -0.13075285 -0.05422576 0.00083363405 -0.15743794
0003f0 6b e6 ee bb 07 c0 13 be c6 45 62 3e 5e e9 1a be
       -0.0072906516 -0.14428721 0.22096929 -0.15128085

lstm2.weight_ih_l0 f4 [256, 128]
000000 a0 11 6b 3d 98 5c 41 be bc d6 0f 3e db af 46 bd
       0.057389855 -0.18882978 0.14046758 -0.048507553
000010 68 12 13 be a2 e8 b5 be 55 cd 04 be 12 b2 6f be
       -0.1436249 -0.35529047 -0.12968953 -0.23407772
000020 f4 43 97 be b2 72 c0 bd ed bf fc bd 2e b2 50 bd
       -0.29544032 -0.093968764 -0.123412944 -0.050951175
000030 b2 b0 23 be d1 f0 6f be ac 35 5b be 2f 19 02 bf
       -0.15985373 -0.23431708 -0.21407193 -0.5081968
000040 f1 7e 07 bd 0d a3 68 be b2 5e d7 bd fc e0 86 bd
       -0.033080045 -0.22718449 -0.105161086 -0.06585881
000050 1e 13 76 bd 08 29 b2 be 23 55 47 bf 9f 3d 60 bd
       -0.060076825 -0.3479693 -0.77864283 -0.054746266
000060 de f2 88 be c5 6d 6f bd 04 00 11 be 35 ea 98 3c
       -0.26747793 -0.058454294 -0.14160162 0.018666366
000070 a1 2b e2 be 9e 30 ba be 4f 6d 44 be a7 86 8f be
       -0.4417391 -0.36365217 -0.19182323 -0.2803242
000080 e4 14 41 be c2 4f 60 bf fa bb 67 be 82 e1 96 be
       -0.18855625 -0.876217 -0.22630301 -0.29468924
000090 5b a2 64 be f9 17 83 be 71 a8 61 be d2 1e eb be
       -0.22327559 -0.25604227 -0.22036912 -0.45921952
0000a0 d6 0f 8d bd 3c 5c be be f7 62 51 bd 2f d1 5f be
       -0.06887786 -0.37179744 -0.05111977 -0.21857141
0000b0 b6 5e 5f 3d c5 cf de be 34 1f cc bc d8 82 1a be
       0.054533683 -0.4351789 -0.024917223 -0.15088975
0000c0 9c ea e3 be 13 76 30 be 47 c8 ab bb 38 4a 51 bd
       -0.4451493 -0.17232542 -0.005242381 -0.05109617
0000d0 29 cc 00 bf 4f 83 9e be 3d 6e 10 be e2 44 2d bd
       -0.50311524 -0.30959556 -0.14104553 -0.04230202
0000e0 d9 10 f2 be b7 a3 29 bd fa ae 51 be 87 53 50 3e
       -0.4727848 -0.041415896 -0.20476905 0.20344363
0000f0 d6 ca 3c be 6f da ca be ef 26 73 3e 04 fc 4d be
       -0.18436751 -0.39619777 0.2374532 -0.20115668
000100 be 4b c3 bd 4b 17 0a bf ee 1e dc 3d 79 81 52 be
       -0.09535931 -0.5394179 0.10748087 -0.20557202
000110 4d a8 51 bf 2b 18 2f 3d 4a 62 a8 be a7 5e dc bc
       -0.8189743 0.042747658 -0.3288749 -0.026900603
000120 00 4c 5e 3d de 19 26 be 38 81 07 bf 64 6c cc bd
       0.054271698 -0.16220805 -0.5293155 -0.09981611
000130 7f 73 17 3d 17 df e3 bd 2d 93 50 be b3 34 d8 3d
       0.03697538 -0.111265354 -0.20368643 0.105569266
000140 48 2f 48 3d 6f ac 72 be d1 d9 2f be 27 a1 36 be
       0.048873216 -0.2369859 -0.17172934 -0.17834912
000150 9a 96 ca be 61 76 98 3d 85 d1 0f be bd d4 74 be
       -0.39568025 0.07444454 -0.14044769 -0.23909278
000160 c5 9c 8e 3e 4d aa 2d 3a 7c 43 12 be 94 32 5b be
       0.2785398 0.0006624803 -0.14283556 -0.21406013
000170 74 09 db be df d3 02 3d e1 dd 36 3d 61 af fb be
       -0.4278065 0.031940337 0.044645194 -0.4915724
000180 1b a0 9c be 96 7f 3b bd 51 4f 17 3e ba 1b 8f be
       -0.305909 -0.045775972 0.1477635 -0.2795084
000190 07 8c 45 be 29 1d a8 3c 10 6d df 3c 50 ce dd bd
       -0.19291697 0.020521717 0.027273685 -0.108303666
0001a0 0a 35 73 3b 35 c0 d6 be b9 cd 4f be ae 72 58 be
       0.0037110471 -0.41943517 -0.2029332 -0.21137497
0001b0 86 54 c4 bc b2 d4 bd be 09 46 65 3e c8 99 78 be
       -0.023966085 -0.37076336 0.22389998 -0.24277413
0001c0 65 1a 23 be 03 3e 87 be b3 5d 36 be 68 b0 60 be
       -0.15928037 -0.264145 -0.17809181 -0.21942294
0001d0 c5 e7 84 3c 68 11 29 3e 95 1b b3 bc 6d ba fe bc
       0.016223798 0.16510546 -0.021863738 -0.031094754
0001e0 e4 1f d6 bd ef be 82 be 84 08 46 be b0 96 0f be
       -0.104553014 -0.25536296 -0.19339186 -0.14022326
0001f0 e8 c2 13 3e bb 39 5d be 25 cd 5b be b4 94 5c be
       0.1442982 -0.21604054 -0.21464975 -0.215411
000200 ce 64 10 bf 96 83 aa be fe da 8b be 56 82 d3 bc
       -0.56403816 -0.33303517 -0.27315515 -0.025818985
000210 4b 85 62 bd c6 65 df bd 4e 26 21 be 8c 00 02 bf
       -0.0553029 -0.109080836 -0.15737268 -0.50782084
000220 6a d6 23 be a9 3a 33 3b f2 af ae be f7 d6 b4 be
       -0.15999761 0.0027348197 -0.3411861 -0.35320255
000230 b1 e6 ec bc 54 11 f6 bd 9e 2e cb bd 6a e4 af bc
       -0.028918596 -0.12015024 -0.09921001 -0.021471221
000240 c1 c0 b4 be 47 cb 70 be a4 01 d1 bd 8a 04 bc be
       -0.3530331 -0.23515044 -0.10205391 -0.36722213
000250 14 8b 4a 3d b3 4e 49 bf 4d 6f de bc 22 27 07 be
       0.04944904 -0.7863571 -0.027152682 -0.13198522
000260 94 25 23 be 46 d1 25 3e 1e fb 08 3e a5 65 4f be
       -0.15932304 0.16193113 0.13377044 -0.20253618
000270 1e 59 16 be 83 3d f7 bb ef f9 b4 be 76 80 a7 3d
       -0.14682433 -0.0075451746 -0.35346934 0.08178799
000280 5b 23 53 be 2d 82 80 3e 84 c6 fa bd 2e 16 b3 bf
       -0.20618956 0.25099316 -0.12244895 -1.3991144
000290 11 88 c1 bd 4e ac bb bf ed 72 cb bd 25 58 81 bc
       -0.09449781 -1.4661958 -0.0993403 -0.0157891
0002a0 43 fe 93 bd 0d f3 1b 3d d6 a2 b8 be ec e7 07 be
       -0.07226231 0.03807359 -0.36061734 -0.13272065
0002b0 78 a7 63 be 1d 68 79 bd f2 d0 a4 be bb fb 80 be
       -0.22231853 -0.060890306 -0.32190663 -0.25192055
0002c0 7b 34 35 be 80 0f 35 3d 2d a4 e9 bc 2c c4 5a 3e
       -0.17695801 0.044204235 -0.028520668 0.21363896
0002d0 38 da 99 bd 59 d3 30 bf 31 ac 84 be 50 c0 11 be
       -0.07512325 -0.6907249 -0.25912622 -0.14233518
0002e0 46 5e 5b bd 3f 0d 72 bd 77 b7 f1 bd 26 be 9b 3d
       -0.053556703 -0.059094664 -0.11802571 0.07604627
0002f0 f6 a4 c2 be 34 30 0d be 50 f5 df be be 3d 61 be
       -0.3801648 -0.1378792 -0.43741846 -0.21996209
000300 4a ee 83 bd 13 02 bb bd 7a 66 88 bc 1f 6c 63 bd
       -0.064419344 -0.09131255 -0.016650427 -0.055523034
000310 60 b1 55 3a 26 2e 5a bf 5f 91 2c bd e9 1c 23 bf
       0.0008151736 -0.85226667 -0.042130824 -0.6371599
000320 40 b1 7d be c4 97 5e be 5c 4b b9 3d b9 d4 d7 bd
       -0.24774647 -0.21737581 0.09047577 -0.105386205
000330 68 87 f3 bd 46 78 09 be 49 dc e8 bd d5 95 a2 bd
       -0.11891061 -0.13424787 -0.11370141 -0.079387344
000340 0f b7 b5 be 00 a0 0c 3c 5b 70 aa be b2 96 4d bf
       -0.35491225 0.008583069 -0.33288845 -0.8030807
000350 a6 c4 cd bd 0b b6 6b 3e 3e 01 be bd 8e a5 d0 bd
       -0.10047273 0.23018663 -0.09277581 -0.10187827
000360 82 6d 40 bf 15 43 9c be 7d 80 9a 3d 7d 51 5a bf
       -0.75167096 -0.3051993 0.075440384 -0.8528059
000370 c5 35 96 be f5 10 6e 3e 06 45 9d bf e5 de 96 bd
       -0.29337898 0.23248656 -1.2286689 -0.073667325
000380 91 5a 0a bf 74 39 78 3e c5 97 8e 3d 29 97 c4 bd
       -0.54044443 0.24240667 0.069625415 -0.09599144
000390 7b 45 3f bb 49 0e 8c 3c 98 59 6f bd 8d 88 41 be
       -0.00291857 0.017096655 -0.058435053 -0.18899746
0003a0 3f 40 93 be fa 1a 7c be 4a 50 16 bf 57 ae b9 be
       -0.28759953 -0.24619666 -0.5871626 -0.36265823
0003b0 b0 01 41 be 24 6c e6 be ab d1 d7 be 22 ce 97 3d
       -0.188483 -0.4500438 -0.4215215 0.074123636
0003c0 8b 11 c6 be 45 15 6b bd 46 52 4d bf 44 76 ab be
       -0.3868526 -0.05739333 -0.80203664 -0.33488667
0003d0 5e 33 c4 3d 29 1b 4d bf 67 d0 c4 be f6 d4 d6 be
       0.0958011 -0.8011957 -0.38440248 -0.4195935
0003e0 5e a4 8f 3d 3c 45 b5 bd f0 76 50 be ac 6c 42 be
       0.070137724 -0.08851096 -0.20357871 -0.18986768
0003f0 e1 0f 01 bd 4b ea 6a bf 0a 88 81 bf 05 38 e5 bd
       -0.031509284 -0.9176375 -1.0119641 -0.111923255

lstm2.weight_hh_l0 f4 [256, 64]
000000 4f ad dd be 5a 19 d1 3d 07 ce 53 be d6 d3 25 be
       -0.43296286 0.102099136 -0.20684062 -0.1619409
000010 d3 ba 7b 3e 87 c2 f6 bd 56 45 ca bd e1 c4 58 3d
       0.24582987 -0.12048822 -0.09876506 0.052922133
000020 de 81 43 3e e4 6e 17 3e 72 f1 54 3e fe e5 c3 3e
       0.19092509 0.14788395 0.20795229 0.38261408
000030 30 51 86 be d5 cd 5b be 7d 21 4c bd 65 ab 83 3e
       -0.26233816 -0.21465237 -0.049836624 0.257167
000040 62 40 cf bc 0e 23 83 3d 8c a0 23 3d ce 9e e3 3c
       -0.025299255 0.064031705 0.03994803 0.027785685
000050 d0 e0 06 be 44 eb 52 3e a3 a3 90 3e f5 4e c4 3c
       -0.13171697 0.20597559 0.28249845 0.02396343
000060 e2 5e 13 be 67 a8 c7 bc 88 8c d7 bd fb 59 3b 3e
       -0.14391664 -0.024372293 -0.10524851 0.18296044
000070 22 dc ad bb 8e e0 c3 bc 6c 43 08 bd 5b 2c 9d 3d
       -0.005305783 -0.023910787 -0.033267424 0.07674476
000080 bd f1 e4 bd 5d e8 7f 3e 10 27 29 bd 3b 66 c3 3d
       -0.111789204 0.24990983 -0.04129702 0.09540983
000090 25 7b 89 bd 7e fd 66 3f e5 53 d5 3d 02 63 52 3e
       -0.06712941 0.9023055 0.10416392 0.20545581
0000a0 84 87 1a be 4f 8f 45 3d 43 b7 cb 3d fc cc 84 3e
       -0.15090758 0.048232373 0.09947064 0.2593764
0000b0 16 d2 50 be e1 5a 07 bd 4d b6 98 3d a5 96 91 bc
       -0.20392641 -0.033045653 0.07456646 -0.017772028
0000c0 01 ea 59 be 30 36 22 bd 13 95 30 3e 12 32 78 3e
       -0.21280672 -0.03960246 0.17244367 0.2423785
0000d0 ce 68 13 be 45 1f eb 3d a3 2e 89 3d 2b 71 0a 3c
       -0.14395449 0.114805736 0.066983484 0.008449833
0000e0 2a 48 92 be a9 db 1f bd 04 74 6f be 17 6c 4d bd
       -0.28570682 -0.039027844 -0.233841 -0.05015191
0000f0 5e 95 df bd cb 27 3d 3e 7b 20 05 be 1b af f6 3d
       -0.109171614 0.18472211 -0.13000672 0.120451175
000100 74 27 7d bf 76 5a ce bf 69 d8 cc be b9 5f 1e bf
       -0.98888326 -1.6121356 -0.40008858 -0.6186481
000110 90 b3 bb 3e 7a d4 c7 be e8 41 4c bf 83 7c 9c be
       0.36660433 -0.39029294 -0.79788065 -0.30563745
000120 c3 ad bb be 25 4d 0e bf ba ca ce be a4 0c 45 be
       -0.36656007 -0.55586463 -0.40389043 -0.19243103
000130 3c 42 dd be 91 48 69 be a9 29 0d bf 3f fd 67 be
       -0.43214595 -0.22781588 -0.55141693 -0.226552
000140 b6 bc 18 bf 16 1f d9 be 9a 73 80 be 43 ae d6 3e
       -0.5966295 -0.4240653 -0.25088197 0.41929826
000150 be d8 89 bf 17 e2 d3 be f9 b9 53 3e af d7 d7 be
       -1.076927 -0.4138343 0.20676412 -0.4215674
000160 ab cb 4f bf 47 29 c9 be 69 95 3c bf db 50 18 bf
       -0.8117015 -0.39289305 -0.7366548 -0.59498376
000170 2b 54 bf 3d b7 d4 a4 be 5a ac b8 be 9c 93 36 bf
       0.09342226 -0.3219354 -0.36068994 -0.71318984
000180 1a 3c 3d bf c0 93 bd be 28 f9 27 bf 19 0f d4 be
       -0.7391983 -0.37026787 -0.6561456 -0.4141777
000190 49 6e 41 3d f5 6c f5 3e 0d bf 1e bf db b9 12 bf
       0.047224317 0.4793469 -0.6201027 -0.5731484
0001a0 ac 04 17 be 5f e3 ad 3e fb c7 02 bf 4b ed 05 3e
       -0.14747876 0.33962533 -0.51086396 0.13078801
0001b0 7a 37 02 be 0b 48 10 bf 1e 66 af be 40 12 01 bf
       -0.12716475 -0.5635993 -0.34257597 -0.5041847
0001c0 13 74 3b be be a6 40 bf da 4c 9b bd f3 15 39 3f
       -0.18305998 -0.7525443 -0.07583018 0.72299117
0001d0 da ee e8 be fa 97 6c be a2 5d dd be e3 3e 04 be
       -0.4549473 -0.2310485 -0.432355 -0.12914614
0001e0 61 b9 f3 be 41 7f 3d bf 7b 53 40 bf 9b b8 f2 be
       -0.4760237 -0.740223 -0.7512738 -0.47406468
0001f0 02 88 74 bf 00 f6 b3 be fb ad 00 bf 31 a3 5b be
       -0.9552003 -0.3514862 -0.50265473 -0.21448971
000200 ef 52 55 bf 7e 5c c6 be a2 ee 92 bf a1 38 06 bf
       -0.8332967 -0.3874244 -1.1479075 -0.5243016
000210 f0 9f d4 3e 58 fd d5 be 0f 42 26 bf 4c 44 d5 bc
       0.41528273 -0.41794848 -0.6494455 -0.026033543
000220 37 86 c5 be 98 03 e7 be 87 9c 08 bf 52 20 e1 be
       -0.3857896 -0.4511993 -0.5336384 -0.4396997
000230 eb 76 08 bf 2e fe f8 be 73 29 04 bf 92 b5 fb bc
       -0.53306454 -0.48631424 -0.51625746 -0.030726228
000240 97 60 38 bf 68 de e3 be ea 0e 0f bd 77 92 e2 3d
       -0.72022384 -0.4450562 -0.034926333 0.11063092
000250 25 3c 42 bf c1 09 a8 be eb a9 89 3e c0 d2 be be
       -0.75873023 -0.32819942 0.2688745 -0.37270164
000260 5c 2f 30 bf a0 ad 06 bf 38 c0 49 bf 0b 2a f8 be
       -0.68822265 -0.5260868 -0.7880893 -0.48469576
000270 aa 8c 69 3e 6e 40 0b bf c4 3c 09 bf 4f 3a 32 bf
       0.22807565 -0.54395187 -0.53608346 -0.6962022
000280 11 fa 43 bf 29 83 be be c1 ef c3 be c5 47 a8 be
       -0.76553446 -0.37209442 -0.38268855 -0.32867256
000290 05 ef 42 be 4a 54 0b 3f 6e d9 0f bf ba d6 05 bf
       -0.19036491 0.5442549 -0.56191146 -0.5228077
0002a0 8b 01 54 be d1 aa 8e 3e 65 1d 25 bf 4d 0e 90 3e
       -0.20703714 0.27864698 -0.6449798 0.2813591
0002b0 94 a6 c8 be dd ae c0 be 93 3c 8b be 8d bf 1b bf
       -0.3918959 -0.3763341 -0.27194652 -0.6083916
0002c0 42 23 d4 be 56 9d f3 be d6 11 88 3c f8 9c 11 3f
       -0.4143315 -0.47580975 0.016610067 0.5688014
0002d0 4b c7 cb be e5 9e c4 be 9b 4c 0c bf fe f7 82 be
       -0.39800486 -0.38402477 -0.5480439 -0.25579828
0002e0 f7 15 13 bf 95 c6 3e bf 02 28 35 bf bf 50 fb be
       -0.5745539 -0.7452176 -0.7076417 -0.49085042
0002f0 a1 7d 57 bf 1a ea d2 be 58 68 fd be fc 29 67 be
       -0.8417607 -0.4119423 -0.4949367 -0.2257461
000300 ac 4a 86 be e7 ea 9f 3c 56 ea 4e bd 0d a7 05 bf
       -0.26228845 0.01952119 -0.05051645 -0.52208024
000310 24 8f cd 3e f9 4f 8f be b5 93 8c be e3 4f 49 3e
       0.4014827 -0.27990702 -0.27456442 0.1965938
000320 ba 68 85 3e 4b bc 87 3e d7 75 ae 3e ca e5 8f 3e
       0.26056463 0.26510844 0.3407428 0.28105003
000330 9a 08 66 be 97 d6 60 be 55 d7 2b be b6 6c ef 3d
       -0.22464219 -0.2195686 -0.16781361 0.11690657
000340 77 44 b1 be 1e 66 7f 3d 91 d2 44 3e 75 28 86 bd
       -0.34622547 0.062353246 0.1922095 -0.06550685
000350 de f4 83 be 69 a7 62 3e 35 3b a9 3e b8 58 88 3e
       -0.25772756 0.22134174 0.33052984 0.26630187
000360 58 c5 81 be 69 4d 33 3e bf 56 45 be b0 68 b5 3e
       -0.25345874 0.17509998 -0.19271372 0.35431433
000370 c5 f7 27 be 44 99 12 3d fb 51 91 3d 95 7e 32 be
       -0.1640311 0.035790697 0.07095715 -0.174311
000380 16 9e a7 be 10 20 32 3e 12 0e c8 3d 18 ca 44 3d
       -0.32737797 0.17395043 0.09768309 0.048044294
000390 2e 7a df bd 65 34 46 3f d9 48 87 3e 42 9c 7d 3e
       -0.10911976 0.774237 0.26422766 0.24766639
0003a0 95 5a 95 be 97 94 35 bd 50 ec a3 3e a8 68 8d 3e
       -0.2917067 -0.04433116 0.3201623 0.2761891
0003b0 5c 25 99 be d7 e8 a9 be 55 db 0a 3e 69 0b 6d be
       -0.29911315 -0.33185455 0.13560231 -0.23148884
0003c0 0b ac b7 3d 03 04 36 be 9e d0 bd 3d 26 94 f9 3d
       0.089683615 -0.17774968 0.09268306 0.1218646
0003d0 13 fc 5e 3e 52 66 b5 3e 29 e2 4e 3e 70 95 41 3e
       0.21775846 0.35429627 0.20203461 0.18904662
0003e0 a7 94 aa bd 79 93 72 be 10 81 37 be 34 da 37 3d
       -0.083291344 -0.23689069 -0.17920327 0.04488583
0003f0 e2 18 d9 bd f6 c0 06 3e b3 a7 87 be 9f 58 94 3e
       -0.10600449 0.13159546 -0.26495132 0.28973863

lstm2.bias_ih_l0 f4 [256]
000000 3f f3 d3 be 10 6d 5c bf 37 07 3b bf 81 b3 02 bf
       -0.4139652 -0.86103916 -0.73057884 -0.5105515
000010 84 9c 34 be 42 57 e2 be 5c 03 f5 be 44 eb 30 bf
       -0.17637831 -0.44207197 -0.47854125 -0.69108987
000020 b9 d8 65 bf e2 40 21 bf 0c e4 45 bf 6d 73 51 bf
       -0.8978382 -0.6298963 -0.77301097 -0.8181675
000030 db 1e d5 be 9d 6a b9 be c6 5e ab be 8f 68 1e bf
       -0.41625103 -0.36214152 -0.33470744 -0.61878294
000040 d8 06 ca be 0e 39 66 bf f5 76 31 bf a5 4b b9 be
       -0.39458346 -0.8993081 -0.6932214 -0.36190525
000050 40 61 b4 be c3 f6 44 bf ae 35 1c be 10 9d 3b bf
       -0.35230446 -0.7693903 -0.15254852 -0.73286533
000060 7a 4e 8f be d2 27 45 bf 58 a6 be be 82 4c 63 bf
       -0.2798956 -0.77013886 -0.37236285 -0.88788617
000070 ca 06 ad be 36 07 46 bf b7 9e 74 bf 32 95 b3 be
       -0.33794242 -0.77354753 -0.9555468 -0.35074764
000080 91 4c a7 be 6b 8e 54 bf 93 fa 7f bf c0 6e 47 bf
       -0.32675603 -0.8302981 -0.9999172 -0.77903366
000090 ca ee f7 be b1 66 4d bd b4 f0 4e bf 82 f7 58 bf
       -0.4842437 -0.050146762 -0.80836034 -0.84752667
0000a0 e8 0d 14 be 0c b8 a6 be f2 39 75 bf a5 a0 62 be
       -0.1445843 -0.32562292 -0.9579154 -0.22131594
0000b0 2f 77 25 bf f5 a7 9d be 42 6f 47 bf a5 37 a0 be
       -0.64634985 -0.30792204 -0.7790414 -0.31292453
0000c0 06 af 53 bf 8c 2a bd be b1 82 2c bf 77 8f 48 bf
       -0.8268894 -0.36946523 -0.6738692 -0.7834391
0000d0 19 f9 1a bf e5 f6 58 bf 94 64 6c bf 4f b1 15 bf
       -0.6053634 -0.8475173 -0.9234097 -0.58473676
0000e0 c3 18 df be 0a 4c 05 bf 85 9e bc be 9b 1c 5e bf
       -0.4357358 -0.5206915 -0.3683969 -0.867624
0000f0 97 26 f9 be e5 ff 4f bf c4 ca dd be 9e 93 3a bf
       -0.48662254 -0.8124984 -0.4331876 -0.72881496
000100 d9 5e ed 3c ec 62 4c be b7 e0 3d bd e6 e0 ec 3d
       0.028975891 -0.1995961 -0.046356883 0.115663335
000110 63 93 de 3e 69 69 38 3e 89 17 64 3e c2 00 4d be
       0.43471822 0.18008961 0.22274603 -0.2001982
000120 16 e6 ce 3d d7 7b 76 be f5 80 38 be 1e b6 b6 bd
       0.10102479 -0.24070679 -0.18017943 -0.08921455
000130 95 25 a1 be 83 11 d0 bd 2e 80 87 3e 41 80 4a bd
       -0.31473985 -0.1015959 0.2646498 -0.04943872
000140 77 7d 58 3e dc 36 37 bd e1 84 3d be 7e 4b 09 bf
       0.21141611 -0.044730052 -0.1850772 -0.53630817
000150 18 53 b9 3d 87 e1 90 bd 2d 5a 83 3d 53 c1 15 be
       0.09049052 -0.07074266 0.06413684 -0.14624529
000160 45 68 80 bb b7 44 2d be 89 b2 ca bd 70 eb 6e be
       -0.00391868 -0.16920744 -0.09897334 -0.23332
000170 76 90 b4 3e 61 c4 3f be b2 8d 86 be 99 91 ae 3d
       0.35266465 -0.18727256 -0.2627998 0.08523864
000180 8d 84 12 3e 80 87 a6 be 69 a6 66 be 00 df 3d be
       0.14308377 -0.32525253 -0.22524418 -0.18542099
000190 78 53 a5 3e 45 01 3e 3e 2e 54 8f be f0 6b ce bd
       0.32290244 0.18555172 -0.27993912 -0.10079181
0001a0 81 62 29 bf 3a f2 35 3e d1 df a1 be c2 b0 9e 3d
       -0.6616593 0.17768183 -0.3161607 0.077485576
0001b0 20 a6 9c 3d 61 0a be be 46 68 79 be 8e 57 a1 3d
       0.07648873 -0.37117293 -0.24356183 0.07878028
0001c0 71 cd 0c 3c 92 03 a0 3d a7 10 2a 3e e7 86 76 3e
       0.008593903 0.07813181 0.16607915 0.24074899
0001d0 2a 01 df 3c 29 5d a6 be 41 fa 64 be b6 f1 4e be
       0.027222235 -0.3249295 -0.2236109 -0.20209393
0001e0 dd 03 03 3e ad 28 4b 3d 72 3e 30 3d 29 15 70 be
       0.12794442 0.04959934 0.043028302 -0.23445572
0001f0 f5 72 2f 3d 17 33 9a be ac 02 c2 bc c9 7f 99 bd
       0.04283424 -0.30117103 -0.023682915 -0.07495076
000200 cd ff 08 3e 32 45 48 3b 81 96 cc bd 0e d2 5b 3e
       0.1337883 0.0030558822 -0.09989644 0.21466848
000210 37 4c 81 be 4b 25 44 3e 03 7b 49 3e 84 e6 22 be
       -0.2525346 0.19154851 0.19675831 -0.15908247
000220 88 c2 02 be e3 43 ca bd 24 94 d2 bb 5c 7d 17 be
       -0.1276952 -0.098762296 -0.006426351 -0.14793915
000230 e2 59 7e 3e e9 cb 35 3e 60 31 2d 3e eb 62 84 bd
       0.24838975 0.17753567 0.16913366 -0.064641796
000240 47 42 0f 3e 4e 45 82 bd 89 f5 35 be 55 f9 0a 3e
       0.13990127 -0.06360875 -0.17769445 0.13571675
000250 9d e7 89 3e be 77 bb bd 49 92 0a 3e 89 d8 30 be
       0.2693452 -0.091536984 0.13532366 -0.17270102
000260 b0 d2 91 3d ab 70 f2 bd c6 6d 8b 3d b5 4b 15 be
       0.071202636 -0.11837896 0.06808047 -0.14579661
000270 ef 83 6b 3d c8 73 23 bd 09 e0 c1 bd ac 10 95 3c
       0.05749887 -0.03990534 -0.094665594 0.018196426
000280 75 88 4c 3e c5 26 3b bd de 49 75 3d 72 ff ee bd
       0.19973929 -0.04569127 0.0598849 -0.11669816
000290 3b ee 3f 3e 49 34 ba bc 26 23 f6 3c a4 86 d5 3b
       0.18743221 -0.02273001 0.030046057 0.0065162946
0002a0 54 01 87 3d 63 5d 4d 3e 26 50 1a bd 3f 1f e8 3d
       0.0659205 0.20055155 -0.03767409 0.11334085
0002b0 8a 74 a8 bc 96 1a 5a 3d a2 a5 c8 bd 3e 5a 0f 3d
       -0.020563383 0.05324801 -0.09797217 0.03499817
0002c0 65 7c a5 bc aa 58 02 3e 4b 19 ce bd 2d 23 a0 bd
       -0.020200917 0.12729135 -0.10063418 -0.07819209
0002d0 94 67 0d bd 6f 5b 48 be 49 5e 44 be c6 3c 23 bc
       -0.034522608 -0.19566129 -0.19176592 -0.00996322
0002e0 57 8f 3f 3e 42 bd 38 3e 92 3d c3 3d 2a a8 15 be
       0.18707024 0.18040946 0.09533228 -0.14614931
0002f0 24 f0 d1 3d 4b 09 20 be da 1a e4 3c 49 ce 18 be
       0.10250881 -0.15628545 0.027844835 -0.14922442
000300 e0 ef 8d be 58 c2 26 bf f8 ba 23 bf ba 64 68 be
       -0.27722073 -0.65140295 -0.63957167 -0.22694674
000310 1f 41 a1 be 7f 7c 47 be 7f 31 e0 bd eb 01 86 bf
       -0.31494996 -0.19481085 -0.10946941 -1.0469335
000320 bf 51 63 bf 43 dd 6c bf ba 17 46 bf aa 3e 68 bf
       -0.8879661 -0.9252512 -0.77379954 -0.9072062
000330 a9 7c 7a be e1 31 63 be 0c 7e a0 be 3e 02 98 bf
       -0.24461617 -0.22186996 -0.31346166 -1.1875684
000340 13 cd b5 be 8a 2e 26 bf e7 dd 71 bf 1c c7 27 be
       -0.35508022 -0.6491476 -0.9447922 -0.16384548
000350 9d d2 cf be 89 c5 5b bf 02 ae c7 bc 23 fd 71 bf
       -0.40590373 -0.8584829 -0.024374966 -0.9452688
000360 ab 1c 9e be 2f 1e 19 bf 6a 14 b9 be 91 d7 59 bf
       -0.30881247 -0.5981168 -0.36148387 -0.85094553
000370 82 4d 6d be 33 71 01 bf 0b cf 30 bf 3a 25 89 be
       -0.23174098 -0.50563353 -0.6906592 -0.26786214
000380 ed 9e a3 be 61 53 2e bf e9 d2 49 bf 58 ed 59 bf
       -0.31957188 -0.68095976 -0.7883745 -0.8512778
000390 fd e2 bf bd 51 13 4c bc 5c 74 23 bf 45 8f 3e bf
       -0.093694665 -0.012455777 -0.63849425 -0.7443736
0003a0 29 b0 f8 be e5 7a 28 be 16 38 32 bf 4a 4e 00 be
       -0.485719 -0.1645313 -0.6961683 -0.12529865
0003b0 0b 68 96 bd 2e 44 2b be 19 0a 84 bf 61 76 a7 be
       -0.07344063 -0.16725227 -1.0315582 -0.32707503
0003c0 11 67 57 bf 48 42 87 be 74 93 71 bf 02 d5 5a bf
       -0.8414164 -0.26417756 -0.9436562 -0.85481274
0003d0 ea 28 8b bf 22 11 71 bf a3 4c 47 bf e7 5e 8f bf
       -1.0871861 -0.9416677 -0.77851313 -1.1200837
0003e0 af af af be 7c ef 55 be 99 b9 bb be 0b 3a 3e bf
       -0.34313723 -0.20892137 -0.36665037 -0.74307317
0003f0 a0 f3 46 be 4a 10 60 bf 4c 75 9c be 29 7c 5d bf
       -0.19428873 -0.87524855 -0.3055824 -0.8651758
